…
{'filters': [4, 12], 'kernels': [3, 4], 'hidden': [20, 15]}
Model: "cnn_model_1654552514"
__________________________________________________________________________________________________
Layer (type)                    Output Shape         Param #     Connected to                     
==================================================================================================
input_1 (InputLayer)            [(None, 28, 28, 1)]  0                                            
__________________________________________________________________________________________________
conv2d (Conv2D)                 (None, 28, 28, 4)    40          input_1[0][0]                    
__________________________________________________________________________________________________
conv2d_1 (Conv2D)               (None, 28, 28, 4)    8           input_1[0][0]                    
__________________________________________________________________________________________________
max_pooling2d (MaxPooling2D)    (None, 14, 14, 4)    0           conv2d[0][0]                     
__________________________________________________________________________________________________
max_pooling2d_1 (MaxPooling2D)  (None, 14, 14, 4)    0           conv2d_1[0][0]                   
__________________________________________________________________________________________________
concatenate (Concatenate)       (None, 14, 14, 8)    0           max_pooling2d[0][0]              
                                                                 max_pooling2d_1[0][0]            
__________________________________________________________________________________________________
conv2d_2 (Conv2D)               (None, 14, 14, 4)    36          concatenate[0][0]                
__________________________________________________________________________________________________
conv2d_3 (Conv2D)               (None, 14, 14, 12)   780         conv2d_2[0][0]                   
__________________________________________________________________________________________________
conv2d_4 (Conv2D)               (None, 14, 14, 12)   60          conv2d_2[0][0]                   
__________________________________________________________________________________________________
max_pooling2d_2 (MaxPooling2D)  (None, 7, 7, 12)     0           conv2d_3[0][0]                   
__________________________________________________________________________________________________
max_pooling2d_3 (MaxPooling2D)  (None, 7, 7, 12)     0           conv2d_4[0][0]                   
__________________________________________________________________________________________________
concatenate_1 (Concatenate)     (None, 7, 7, 24)     0           max_pooling2d_2[0][0]            
                                                                 max_pooling2d_3[0][0]            
__________________________________________________________________________________________________
conv2d_5 (Conv2D)               (None, 7, 7, 12)     300         concatenate_1[0][0]              
__________________________________________________________________________________________________
flatten (Flatten)               (None, 588)          0           conv2d_5[0][0]                   
__________________________________________________________________________________________________
dense (Dense)                   (None, 20)           11780       flatten[0][0]                    
__________________________________________________________________________________________________
dense_1 (Dense)                 (None, 15)           315         dense[0][0]                      
__________________________________________________________________________________________________
dense_2 (Dense)                 (None, 10)           160         dense_1[0][0]                    
==================================================================================================
Total params: 13,479
Trainable params: 13,479
Non-trainable params: 0
__________________________________________________________________________________________________
None
Epoch 1/200
 1/47 [..............................] - ETA: 12:24 - loss: 6.3271 - sp
…
